model.tflite (tflite, 740848 bytes, 16 tensors)

arith.constant f4 [64]
-0.013259832 -0.010740666 -0.006004021 -0.05431995 -0.015176672 0.050785728 -0.011800809 -0.0041376147
-0.015585448 0.004617182 -0.00843115 -0.002257551 -0.008601136 -0.011279662 0.049430475 0.051177554
-0.01863391 -0.0070249806 -0.009477728 -0.0079936115 -0.010821723 -0.023765508 -0.017054405 0.014257301
-0.013564034 0.040111706 -0.0036016817 0.0060111335 -0.008890171 0.017587477 0.02659416 -0.01541557
0.05170292 0.04097956 -0.027139248 0.057563696 -0.017897047 7.6343495e-06 -0.011543152 0.036305938
-0.009012111 0.068037115 0.05402843 -0.0030820318 -0.012671574 0.0063750898 0.005076602 0.051313907
-0.0059987945 -0.0063190553 -0.0041542277 0.04674738 -0.01973268 0.030614845 -0.005810753 -0.012282879
0.017904676 -0.026270416 -0.015720638 -0.007904716 -0.010457391 -0.015310863 0.06130124 0.040367454
00000000: c43f 59bc 9ef9 2fbc 61bd c4bb 997e 5ebd
00000010: 93a7 78bc b204 503d 2e58 41bc d494 87bb
00000020: 1b5a 7fbc bb4b 973b ce22 0abc 6cf3 13bb
00000030: c7eb 0cbc 55ce 38bc 9c77 4a3d 8e9f 513d
00000040: 24a6 98bc cf31 e6bb 7948 1bbc a3f7 02bc
00000050: 994d 31bc e2af c2bc aeb5 8bbc 7497 693c
00000060: af3b 5ebc 2c4c 243d 310a 6cbb 0bf9 c43b
00000070: 14a8 11bc 9d13 903c ffdb d93c 9691 7cbc
00000080: 71c6 533d 2fda 273d 2153 debc e9c7 6b3d
00000090: d49c 92bc 4815 0037 7d1f 3dbc 89b5 143d
000000a0: 89a7 13bc 0b57 8b3d ea4c 5d3d eafb 49bb
000000b0: 6f9c 4fbc 21e6 d03b a059 a63b 882e 523d
000000c0: 8991 c4bb 1410 cfbb 3020 88bb 2e7a 3f3d
000000d0: 6ea6 a1bc fccb fa3c 2168 bebb 213e 49bc
000000e0: d4ac 923c 0e35 d7bc 91c8 80bc c882 01bc
000000f0: 7a55 2bbc 6ada 7abc 0217 7b3d 5858 253d

arith.constant1 f4 [64]
-0.024951838 0.0058906986 -0.030903658 -0.018940534 0.02771079 -0.002770625 -0.009116094 0.04749371
-0.019665621 -0.026433967 -0.020364303 -0.0014891004 0.051270213 -0.00554994 -0.029973371 0.04262415
-0.026177375 -0.008595253 0.022232147 -0.019833978 0.020155014 -0.030219944 0.030126134 0.0071987496
0.039265886 0.0350126 0.020542193 -0.03387052 -0.004553885 0.047296993 -0.00031178896 -0.013382813
0.024804607 -0.018606508 -0.0020690793 0.015458257 -0.012265856 0.03871306 -0.0052351076 -0.006367867
-0.0078027793 -0.011498145 -0.02674772 0.042079814 -0.025679262 0.0053508463 -0.010116536 -0.006566958
0.030476304 -0.032626085 0.03289756 -0.01959917 0.009734381 -0.010024109 -0.0337978 0.011874165
-0.026564306 -0.02524308 0.0017405354 0.020699764 -0.012788444 0.008818497 -0.008635433 -0.02605766
00000000: cc67 ccbc c306 c13b ab29 fdbc 2e29 9bbc
00000010: bd01 e33c 6093 35bb ab5b 15bc c488 423d
00000020: cc19 a1bc 0c8c d8bc 0ad3 a6bc eb2d c3ba
00000030: b700 523d 45dc b5bb b78a f5bc a996 2e3d
00000040: ef71 d6bc 1bd3 0cbc 3120 b63c de7a a2bc
00000050: 211c a53c d18f f7bc 15cb f63c 7de3 eb3b
00000060: 44d5 203d 5f69 0f3d 1a48 a83c d0bb 0abd
00000070: c238 95bb 7eba 413d 9b77 a3b9 9643 5bbc
00000080: 0833 cb3c ad6c 98bc 6499 07bb a144 7d3c
00000090: bbf6 48bc 9691 1e3d 448b abbb 8aa9 d0bb
000000a0: 75ae ffbb b762 3cbc 091e dbbc e25b 2c3d
000000b0: 515d d2bc 2756 af3b d4bf 25bc a32f d7bb
000000c0: 71a9 f93c eea2 05bd 98bf 063d 708e a0bc
000000d0: f47c 1f3c 293c 24bc 906f 0abd dc8b 423c
000000e0: 639d d9bc 93ca cebc ad22 e43a 8d92 a93c
000000f0: 9f86 51bc 757b 103c a27b 0dbc e076 d5bc

arith.constant2 f4 [64]
0.02940369 0.0069617913 0.0013310494 -0.044084936 -0.009648944 -0.013545346 -0.012720897 -0.014115845
-0.033836454 0.013372904 -0.013574758 -0.009272932 0.006727337 -0.018930936 0.027301336 0.039164808
0.009077261 0.014043669 0.02435073 0.024111131 -0.0016692437 -0.03830654 0.008961295 0.023218406
-0.007265451 -0.023688208 0.03366323 -0.008540392 -0.011337903 -0.04896812 0.029460978 0.0510639
0.04444099 0.052708562 -0.010974333 -0.026318839 0.042698327 0.020594437 0.006054199 0.03244457
-0.010111711 0.04722461 0.046175227 -0.023951272 -0.0065599834 -0.020239368 0.0049663326 -0.007874661
0.005581379 -0.015536988 0.010837251 0.018472746 0.029965982 -0.034004454 -0.0103740515 0.0031051193
0.027225407 -0.0163757 -0.020387538 0.023523966 -0.016464436 -0.010876125 0.009105148 -0.008821133
00000000: 02e0 f03c bd1f e43b 9b76 ae3a 6892 34bd
00000010: 9b16 1ebc 4ded 5dbc 4f6b 50bc 2546 67bc
00000020: 1898 0abd 061a 5b3c a968 5ebc 7fed 17bc
00000030: fe70 dc3b 0d15 9bbc 0da7 df3c 476b 203d
00000040: cbb8 143c 6b17 663c 2f7b c73c b584 c53c
00000050: 86ca daba 52e7 1cbd 65d2 123c 8734 be3c
00000060: 0513 eebb c60d c2bc 74e2 093d 00ed 0bbc
00000070: 9dc2 39bc cc92 48bd 2658 f13c 6128 513d
00000080: c107 363d efe4 573d b0cd 33bc 9b9a d7bc
00000090: 71e4 2e3d aab5 a83c 4d62 c63b 99e4 043d
000000a0: 97ab 25bc 986e 413d 3c22 3d3d 7535 c4bc
000000b0: 21f5 d6bb 08cd a5bc 9ebc a23b b904 01bc
000000c0: 00e4 b63b da8e 7ebc ba8e 313c 2854 973c
000000d0: 387b f53c 4148 0bbd edf7 29bc 427f 4b3b
000000e0: d107 df3c 5526 86bc c403 a7bc 55b5 c03c
000000f0: 6de0 86bc c631 32bc c22d 153c 8386 10bc

arith.constant3 f4 [64]
-0.004380615 -0.017773055 -0.044501733 -0.009443424 -0.019832674 0.029944865 -0.0015865428 -0.01768692
-0.01112913 -0.01886279 0.03149215 0.00050132186 0.05652139 0.001564461 0.010427493 0.008855059
0.015270827 0.05354428 0.010392519 -0.01758194 -0.007663229 -0.011347511 -0.01960528 -0.026475362
0.03518016 -0.008969689 0.015108262 0.024391256 -0.038604964 -0.005447456 -0.008082846 0.06350975
-0.0064089955 0.0048133265 0.0060219713 -0.007848001 -0.009294909 0.03185535 -0.007606349 -0.01581317
-0.014268301 0.0058573964 0.015143424 -0.017038219 -0.017443331 -0.014074832 0.024810798 -0.04288993
-0.006811736 -0.024020478 -0.016467893 0.027683308 0.033537198 -0.03401643 -0.006127453 0.036442854
-0.018673148 -0.016915854 -0.029421888 -0.013761412 0.021755956 0.03243673 -0.0025505768 -0.0018876954
00000000: 438b 8fbb cc98 91bc 7347 36bd 97b8 1abc
00000010: 2278 a2bc ef4e f53c 8bf3 cfba 29e4 90bc
00000020: f456 36bc 2386 9abc eafd 003d 246b 033a
00000030: f982 673d 9a0e cd3a 13d8 2a3c cf14 113c
00000040: 7e32 7a3c 3f51 5b3d 6245 2a3c 0008 90bc
00000050: d31b fbbb e9ea 39bc 419b a0bc dce2 d8bc
00000060: 1219 103d 9af5 12bc a588 773c 2cd0 c73c
00000070: 3d20 1ebd 9380 b2bb ea6d 04bc 6611 823d
00000080: 8d02 d2bb 1cb9 9d3b f553 c53b e794 00bc
00000090: ad49 18bc c17a 023d ae3e f9bb 9f8a 81bc
000000a0: 98c5 69bc 67ef bf3b 201c 783c bc93 8bbc
000000b0: 51e5 8ebc 209a 66bc 0440 cb3c 5aad 2fbd
000000c0: fc34 dfbb 98c6 c4bc ade7 86bc 1bc8 e23c
000000d0: 4d5e 093d d054 0bbd cdc8 c8bb 1a45 153d
000000e0: 6ef8 98bc 1e93 8abc 2c06 f1bc 8c77 61bc
000000f0: 8c39 b23c 60dc 043d 9427 27bb 8c6c f7ba

arith.constant4 f4 [64]
-0.00701228 -0.062381763 -0.035988387 -0.0304382 0.016744198 -0.011980688 -0.01579668 0.013392245
0.0021569852 -0.01083193 -0.023446202 0.03928901 -0.062015146 -0.0078058136 0.014302351 -0.012028441
-0.007622101 -0.0037108907 -0.023080032 -0.048403446 -0.0038668972 -0.017380765 0.0036571056 -0.044638477
0.011444516 -0.03369339 0.012461202 -0.02161915 -0.00030439696 0.04757986 0.03820469 -0.01342634
-0.024013953 0.00816449 -0.012728396 0.006350403 -0.043088347 -0.028983844 0.017008673 -0.010129182
-0.015756337 0.010723563 -0.009084425 -0.015357885 -0.010920226 0.0516776 0.009959376 -0.023576071
-0.038664512 -0.021915067 -0.018271603 0.016736098 -0.013834245 -0.020297408 0.01768079 -0.008658594
-0.0055097383 0.00046090994 -0.0071756905 -0.0050277477 0.00087306404 -0.002105046 0.0022977178 0.082630746
00000000: 45c7 e5bb 0584 7fbd 8f68 13bd 8859 f9bc
00000010: 212b 893c a64a 44bc 0a68 81bc 266b 5b3c
00000020: 355c 0d3b 6878 31bc 4012 c0bc 83ed 203d
00000030: 9803 7ebd e9c7 ffbb 6854 6a3c f012 45bc
00000040: d1c2 f9bb 6a32 73bb 5612 bdbc b142 46bd
00000050: c56b 7dbb 1b62 8ebc 0dac 6f3b d6d6 36bd
00000060: c781 3b3c 1502 0abd 122a 4c3c a51a b1bc
00000070: 7897 9fb9 19e3 423d 857c 1c3d 27fa 5bbc
00000080: e9b8 c4bc 5ac4 053c c38a 50bc 0b17 d03b
00000090: 687d 30bd 876f edbc c655 8b3c def4 25bc
000000a0: 6f13 81bc e2b1 2f3c d7d6 14bc a39f 7bbc
000000b0: bfea 32bc e4ab 533d a72c 233c 9b22 c1bc
000000c0: ae5e 1ebd 3a87 b3bc 54ae 95bc 241a 893c
000000d0: 07a9 62bc c046 a6bc 4ed7 903c c7dc 0dbc
000000e0: 098b b4bb 49a6 f139 0e22 ebbb cebf a4bb
000000f0: 56de 643a d0f4 09bb 4f95 163b 4f3a a93d

arith.constant5 f4 [64, 3, 3, 64]
-0.05014564 0.040078714 0.03254125 0.058931246 0.03178709 -0.02187238 -0.03669035 -0.04313385
0.020889197 -0.043741968 0.04978025 0.03676526 0.010761245 -0.024103584 -0.03877767 -0.05708979
0.04399728 0.04629529 0.032294046 0.04222702 0.03211256 -0.056001276 0.034849983 0.025804445
-0.052506074 -0.013633785 0.034098744 -0.0026745945 0.022579173 0.023141624 -0.014548454 -0.03280315
-0.05514317 -0.0126836635 -0.012363309 -0.033114225 -0.06310243 -0.07243861 0.038319148 -0.05216561
0.0018436116 -0.02885539 -0.0064070346 -0.02009324 -0.012318529 -0.009560574 0.046357542 0.0032060728
-0.040002342 -0.004754782 -0.07063298 0.0027755871 -0.058621634 -0.076162696 -0.004745987 0.022317778
0.007410787 0.017369816 0.056089338 -0.015854347 -0.008786436 -0.05530516 0.0024361778 -0.0042064465
0.0080679795 0.055429522 -0.04640488 0.017784275 0.05044594 -0.04238839 0.0315041 0.030934779
0.028204963 0.012940817 -0.040410146 -0.06621922 -0.013210638 0.035124354 0.053555727 -0.07949933
0.043817475 0.013723808 -0.041584477 -0.015662048 0.032511275 -0.055077292 0.0016201315 0.042568475
0.06015824 0.018643744 0.010837578 -0.051635087 -0.0344604 -0.06857495 -0.044223677 0.015774816
-0.09046922 -0.062459223 -0.027306568 -0.062179185 0.018094603 -0.010421008 0.00046728074 -0.05643036
-0.05824188 0.027569592 0.007885666 0.015580448 -0.015793372 -0.0677147 0.0015495699 0.010653272
0.010854785 0.0041383924 0.027882993 -0.03458639 -0.083234064 0.061486855 0.0157374 -0.037539132
0.04492885 -0.033323135 -0.010905939 0.005057191 -0.05631952 -0.07115322 -0.026790407 -0.038680132
-0.07116358 -0.06289738 -0.032196354 0.029361993 0.020180142 -0.060072206 -0.05431683 -0.09727051
0.0013765015 0.011496611 0.037602235 0.0346649 -0.005665416 -0.029825483 -0.075760365 -0.03825389
-0.06995458 0.04651704 -0.0505607 0.01419228 0.035166997 -0.017105877 0.061003953 -0.070319295
0.0006244725 -0.04720532 -0.040343303 0.013396077 0.02552189 0.03437064 -0.07421515 -0.031872883
-0.035695422 0.028759003 0.018019091 -0.013166388 -0.07924173 -0.089860916 -0.05291722 0.030354135
0.0430105 0.04097262 -0.05811676 -0.012849569 0.009787761 -0.004532416 0.009446707 -0.004049108
-0.04305651 0.034976438 -0.06826435 0.05851076 0.025437227 0.05294078 0.03901329 0.062834725
-0.070799634 0.047920927 0.03536094 -0.03251495 -0.08178394 -0.017103432 -0.013800513 0.009671822
-0.034261473 0.056789055 -0.035943918 -0.040809814 -0.06341571 0.031068146 0.023912486 -0.052876417
-0.051299848 -0.016600613 0.07409654 -0.06613926 -0.034460742 0.02471184 0.008071401 0.048469473
-0.07642982 -0.04133533 -0.06574558 -0.007221954 0.051737424 -0.010306723 -0.07331778 -0.07645974
-0.021511361 -0.048215833 -0.056618076 -0.018593661 0.04075864 -0.039026093 -0.014827636 -0.012255247
0.03666798 -0.00019026548 -0.0070645106 -0.024531301 0.016506355 0.025505023 0.027954627 -0.023206074
-0.01261292 0.03639514 -0.017754707 0.029521778 -0.0322366 -0.031658478 -0.048927665 -0.044038452
0.058828626 0.038404003 -0.10123146 0.009204408 -0.058581755 -0.067633495 0.060222145 0.0251833
-0.0662379 -0.026618835 0.058521524 0.013597282 0.03086592 0.039150637 0.048368108 0.04164468
00000000: 8465 4dbd 9429 243d f949 053d e461 713d
00000010: 2e33 023d b52d b3bc 9f48 16bd 1fad 30bd
00000020: d21f ab3c c72a 33bd 60e6 4b3d 2b97 163d
00000030: ef4f 303c e174 c5bc 56d5 1ebd fcd6 69bd
00000040: 7e36 343d 21a0 3d3d c346 043d 3df6 2c3d
00000050: 7688 033d 9861 65bd dbbe 0e3d d863 d33c
00000060: 9c10 57bd 3d60 5fbc 20ab 0b3d 4048 2fbb
00000070: f5f7 b83c 8193 bd3c a45c 6ebc 995c 06bd
00000080: cedd 61bd 24cf 4fbc 7a8f 4abc c8a2 07bd
00000090: d93b 81bd b25a 94bd 8af4 1c3d 9bab 55bd
000000a0: 57a5 f13a 2462 ecbc 1af2 d1bb 949a a4bc
000000b0: a8d3 49bc f4a3 1cbc 68e1 3d3d fa1c 523b
000000c0: 7fd9 23bd 01ce 9bbb 06a8 90bd a0e6 353b
000000d0: 3d1d 70bd 30fb 9bbd 3984 9bbb c6d3 b63c
000000e0: 30d6 f23b 254b 8e3c efbd 653d fae0 81bc
000000f0: fcf4 0fbc aa87 62bd 48a8 1f3b 3bd6 89bb
00000100: 8f2f 043c 110a 633d 0b13 3ebd 54b0 913c
00000110: 67a0 4e3d 739f 2dbd 710a 013d ef6a fd3c
00000120: 180e e73c b805 543c 1c85 25bd f19d 87bd
00000130: 6f71 58bc 8ede 0f3d 405d 5b3d 8bd0 a2bd
00000140: f479 333d d3d9 603c 7c54 2abd b24d 80bc
00000150: 8b2a 053d ba98 61bd 985a d43a 485c 2e3d
00000160: 7d68 763d c4ba 983c 1990 313c 507f 53bd
00000170: 5926 0dbd 0671 8cbd e323 35bd 303a 813c
00000180: ed47 b9bd 3ed5 7fbd 06b2 dfbc 9aaf 7ebd
00000190: 223b 943c e0bc 2abc 5cfd f439 8523 67bd
000001a0: 0a8f 6ebd a0d9 e13c e132 013c 2345 7f3c
000001b0: 1a61 81bc 01ae 8abd f01a cb3a 108b 2e3c
000001c0: 45d8 313c 5a9b 873b e06a e43c 75aa 0dbd
000001d0: 9f76 aabd a4d9 7b3d b8eb 803c a2c2 19bd
000001e0: 5007 383d d77d 08bd d3ae 32bc cbb6 a53b
000001f0: 4caf 66bd c8b8 91bd 8e77 dbbc 0f6f 1ebd
00000200: 36be 91bd 57d0 80bd 53e0 03bd 9088 f03c
00000210: d350 a53c 460e 76bd 537b 5ebd c335 c7bd
00000220: ba6b b43a 485c 3c3c cd04 1a3d c8fc 0d3d
00000230: f4a4 b9bb 9254 f4bc 4028 9bbd 1cb0 1cbd
00000240: 5944 8fbd a788 3e3d bd18 4fbd bd86 683c
00000250: 450b 103d a021 8cbc 48df 793d 9003 90bd
00000260: a4b3 233a 5e5a 41bd 053f 25bd 387b 5b3c
00000270: 4813 d13c 3ac8 0c3d 1dfe 97bd 248d 02bd
00000280: 5d35 12bd 0098 eb3c c69c 933c d5b7 57bc
00000290: 7d49 a2bd 0009 b8bd babf 58bd 3ca9 f83c
000002a0: c72b 303d e8d2 273d d70b 6ebd 0087 52bc
000002b0: d85c 203c a984 94bb 5cc6 1a3c 61ae 84bb
000002c0: 065c 30bd 7443 0f3d 2ece 8bbd fba8 6f3d
000002d0: bb61 d03c 6ed8 583d 66cc 1f3d 7eaf 803d
000002e0: 66ff 90bd bc48 443d a2d6 103d 652e 05bd
000002f0: 577e a7bd 7f1c 8cbc 8c1b 62bc 9076 1e3c
00000300: c255 0cbd a49b 683d ee39 13bd 3128 27bd
00000310: 19e0 81bd a082 fe3c 1ee4 c33c f194 58bd
00000320: ca1f 52bd 02fe 87bc edbf 973d 0574 87bd
00000330: b526 0dbd 7c70 ca3c e93d 043c ed87 463d
00000340: 3d87 9cbd 3c4f 29bd 9ea5 86bd 24a6 ecbb
00000350: 9fea 533d 88dd 28bc a227 96bd ed96 9cbd
00000360: 9838 b0bc f77d 45bd 5be8 67bd bc51 98bc
00000370: 88f2 263d d3d9 1fbd 9def 72bc 3bca 48bc
00000380: 2a31 163d 0082 47b9 697d e7bb def5 c8bc
00000390: 5638 873c e9ef d03c 1a01 e53c aa1a bebc
000003a0: 6ca6 4ebc 1213 153d 5272 91bc a8d7 f13c
000003b0: 860a 04bd 52ac 01bd 6068 48bd aa61 34bd
000003c0: 49f6 703d 844d 1d3d 7152 cfbd 16ce 163c
000003d0: 6cf3 6fbd 6e83 8abd 7fab 763d 354d ce3c
000003e0: bca7 87bd be0f dabc 44b4 6f3d 22c7 5e3c
000003f0: 87da fc3c 6b5c 203d a31d 463d 9d93 2a3d

arith.constant6 f4 [64, 3, 3, 64]
0.03149028 -0.09465595 0.059483625 0.03922516 0.0008841188 -0.06529325 -0.015674097 -0.08713004
0.011810329 -0.03167814 -0.03215148 -0.014279324 0.034144275 -0.015107143 -0.0016029787 -0.025704684
0.006444145 0.11620785 0.0038571847 0.057209928 -0.044668175 0.0037381165 0.06582496 0.0872579
-0.0860109 0.05208563 -0.018995993 0.008345211 -0.076401986 0.024241159 0.06594713 -0.101162635
0.13473435 0.042892046 -0.0035257733 -0.038713165 -0.027623551 0.076332636 -0.09263538 -0.05065203
0.029015541 0.024276169 -0.0236828 0.012260835 0.021956654 -0.029197332 0.037636634 0.05269026
0.09628033 0.0008077539 0.018632779 -0.014333651 0.05216583 -0.0065067066 0.0051473854 0.03553105
0.06666288 -0.0337787 -0.008425605 0.041449115 0.04976425 0.030344516 0.0066258297 -0.011741301
-0.09432968 0.01927062 0.0092716515 -0.045814805 -0.014160402 -0.05442206 -0.03033711 0.0064036506
0.065711655 0.03714749 -0.0005384313 -0.02474764 -0.074376345 -0.060183488 -0.09833461 -0.015137044
0.0119466195 0.10838355 0.008314769 0.032949984 -0.012014665 0.06939913 0.1227688 0.054917183
-0.10126327 0.10896752 -0.111525506 0.05789123 -0.105945855 0.06492485 0.09631327 -0.07787724
0.117221355 -0.016418902 -0.0320427 -0.08488169 0.025056738 -0.0038253611 0.038097564 0.026580246
0.084165215 0.0370922 -0.026813868 -0.05140671 0.06418677 0.013840324 0.05731692 0.009139011
0.083999865 -0.014967789 -0.0066460953 -0.013530942 0.09282535 0.07262632 -0.05820396 -0.03671901
0.047249023 0.016524414 0.02937001 0.029531343 -0.033109408 -0.037686016 -0.10115609 -0.014893473
0.00588169 -0.080181934 -0.0161607 -0.050149005 -0.060692523 -0.004466588 0.040754456 -0.051454987
0.03997066 -0.036155656 -0.026730021 -0.075638376 -0.02257356 -0.04003529 -0.05188683 -0.04644354
-0.062040392 0.022990381 0.07006625 -0.0642645 -0.02875379 0.066944644 -0.0036892078 -0.023809666
-0.07731411 0.06607133 -0.10077235 -0.050202563 0.008697191 0.047451 0.12398872 0.0026910878
0.12733644 -0.049719054 -0.039551537 0.017772427 0.006623197 -0.012661396 0.00858818 -0.023784654
0.03236254 -0.037642866 -0.08169354 -0.04277047 -0.050564505 -0.04839916 -0.0341616 -0.061548773
0.10769189 -0.011469579 -0.007113329 0.0138744265 0.08801553 -0.047149826 -0.0013520628 0.04217934
0.0067607067 0.034027237 0.008528743 -0.040387806 -0.07091072 0.019151399 0.035858244 0.05198015
-0.002646161 -0.028643705 -0.089641444 -0.00754858 0.05915123 0.030764664 -0.061391138 -0.07024692
0.03996962 -0.08291256 0.01676652 -0.0032666074 -0.03646381 -0.045847327 -0.020641664 -0.028927458
-0.024405606 0.063452326 0.008450277 0.03674886 -0.07674096 -0.054054096 0.007995566 -0.049234387
-0.003117656 0.04027534 0.030515412 0.05333744 -0.005182283 -0.037171423 -0.037320264 -0.039935175
-0.017845066 -0.031583607 -0.04311462 0.021131359 -0.033688977 0.0024009554 0.048595175 -0.056212272
0.0011455052 -0.023189748 -0.04695745 -0.028888462 0.015960576 -0.07293551 0.03994257 -0.02532624
0.030197136 -0.09272302 0.015620389 0.08511277 0.014256684 -0.029322242 0.006653129 -0.046222433
0.039141074 -0.026943684 0.013209393 -0.010963047 -0.0337994 0.0033047805 0.024418399 -0.07189393
00000000: f4fb 003d fbda c1bd 1aa5 733d 90aa 203d
00000010: 35c4 673a 78b8 85bd f766 80bc 3c71 b2bd
00000020: 1c80 413c f0c0 01bd 45b1 03bd d3f3 69bc
00000030: deda 0b3d f383 77bc 0a1b d2ba a192 d2bc
00000040: 6829 d33b 62fe ed3d d2c8 7c3b f554 6a3d
00000050: faf5 36bd 30fb 743b 3dcf 863d 45b4 b23d
00000060: 7c26 b0bd be57 553d 7c9d 9bbc 5aba 083c
00000070: a578 9cbd 6595 c63c 4a0f 873d 5b2e cfbd
00000080: cdf7 093e 92af 2f3d a910 67bb b291 1ebd
00000090: c94a e2bc 4954 9c3d 9eb7 bdbd 8178 4fbd
000000a0: 00b2 ed3c d1de c63c 6e02 c2bc abe1 483c
000000b0: 71de b33c 3e2f efbc df28 1a3d bed1 573d
000000c0: 9f2e c53d 72bf 533a c5a3 983c b1d7 6abc
000000d0: d6ab 553d 3636 d5bb 66ab a83b 0289 113d
000000e0: 8c86 883d 895b 0abd 8c0b 0abc 8cc6 293d
000000f0: 99d5 4b3d 1095 f83c 7d1d d93b 965e 40bc
00000100: eb2f c1bd 6bdd 9d3c 20e8 173c 4ea8 3bbd
00000110: 0801 68bc aae9 5ebd 8885 f8bc b7d5 d13b
00000120: d593 863d f727 183d 8325 0dba 90bb cabc
00000130: a052 98bd f682 76bd a863 c9bd 5d01 78bc
00000140: c1bb 433c 32f8 dd3d ab3a 083c 90f6 063d
00000150: 28d9 44bc 2221 8e3d 356e fb3d d7f0 603d
00000160: 1e63 cfbd 5d2a df3d 7c67 e4bd 5b1f 6d3d
00000170: 24fa d8bd 52f7 843d e43f c53d 1a7e 9fbd
00000180: c011 f03d ef80 86bc 353f 03bd 74d6 adbd
00000190: ca43 cd3c e9b2 7abb 310c 1c3d d1be d93c
000001a0: d05e ac3d feed 173d c2a8 dbbc d88f 52bd
000001b0: 5a74 833d 87c2 623c 26c5 6a3d cabb 153c
000001c0: 1f08 ac3d 753b 75bc 7dc7 d9bb e2b0 5dbc
000001d0: 381b be3d 1cbd 943d 4767 6ebd ac66 16bd
000001e0: 3188 413d 355e 873c 6099 f03c b7eb f13c
000001f0: bb9d 07bd a75c 1abd ed2a cfbd c103 74bc
00000200: 31bb c03b 6d36 a4bd 7263 84bc 0b69 4dbd
00000210: b998 78bd 755c 92bb 25ee 263d 77c2 52bd
00000220: 46b8 233d f417 14bd ebf8 dabc 4be8 9abd
00000230: 30ec b8bc 0bfc 23bd 4987 54bd 953b 3ebd
00000240: 111e 7ebd 5356 bc3c e57e 8f3d 1b9d 83bd
00000250: 118d ebbc 461a 893d a3c6 71bb 7d0c c3bc
00000260: dc56 9ebd 6850 873d bc61 cebd 34a1 4dbd
00000270: aa7e 0e3c fb5b 423d cced fd3d f65c 303b
00000280: 7c64 023e 35a6 4bbd cb00 22bd 7b97 913c
00000290: 6707 d93b be71 4fbc 70b5 0c3c 09d8 c2bc
000002a0: 958e 043d 682f 1abd f14e a7bd 1730 2fbd
000002b0: ba1c 4fbd 333e 46bd 09ed 0bbd 911a 7cbd
000002c0: 918d dc3d e7ea 3bbc ee16 e9bb 9051 633c
000002d0: 7c41 b43d 2d20 41bd b337 b1ba 3ec4 2c3d
000002e0: eb88 dd3b 2560 0b3d 24bc 0b3c af6d 25bd
000002f0: a439 91bd 65e3 9c3c 18e0 123d 23e9 543d
00000300: 376b 2dbb 34a6 eabc ef95 b7bd 145a f7bb
00000310: 8f48 723d 2d06 fc3c 4675 7bbd 9edd 8fbd
00000320: 2fb7 233d 0fce a9bd f159 893c 9414 56bb
00000330: 135b 15bd 68ca 3bbd b518 a9bc 47f9 ecbc
00000340: 44ee c7bc 4bf3 813d 0873 0a3c f985 163d
00000350: 5d2a 9dbd d467 5dbd d6ff 023c ffa9 49bd
00000360: 9751 4cbb c1f7 243d 75fb f93c 5c78 5a3d
00000370: 24d0 a9bb 1041 18bd 22dd 18bd 1193 23bd
00000380: d12f 92bc d05d 01bd f598 30bd ac1b ad3c
00000390: 74fd 09bd 5959 1d3b bc0b 473d d73e 66bd
000003a0: c724 963a 6df8 bdbc 7556 40bd 7fa7 ecbc
000003b0: c1bf 823c 365f 95bd d29a 233d fa78 cfbc
000003c0: fc5f f73c 91e5 bdbd a9ec 7f3c 9b4f ae3d
000003d0: de94 693c 3335 f0bc 7e02 da3b bc53 3dbd
000003e0: 6452 203d 00b9 dcbc 366c 583c 5a9e 33bc
000003f0: 3d71 0abd 0495 583b 1809 c83c 203d 93bd

arith.constant7 f4 [64, 3, 3, 64]
0.061882507 -0.002097545 -0.045934394 -0.049174882 0.040149417 -0.032640703 -0.024047425 0.017758105
0.063655235 -0.05914643 0.05891707 -0.043461535 -0.0128977215 -0.055416588 0.038429454 0.02339609
0.055783045 0.059405323 -0.069178164 -0.06376479 0.01483398 -0.04037529 0.06632439 0.04322811
0.06898483 -0.016299572 -0.039632164 -0.00017842055 0.0075690188 -0.036970194 0.03477295 -0.03245313
0.039797217 0.012746055 -0.007494682 -0.031208724 -0.029777925 -0.041952536 0.0036990775 -0.03201954
-0.026717968 0.0139927985 0.044344783 0.00345771 0.06563258 -0.04677371 0.0039176107 -0.09470761
0.06522464 -0.047212265 -0.023226416 0.00417118 -0.04751579 0.028623825 0.048733063 0.051475782
0.03713662 -0.024288608 -0.005949319 0.024894545 0.068636194 0.07796127 0.015567931 -0.05815382
-0.061648276 -0.0045426153 -0.020004649 -0.04515299 -0.013521675 -0.054567628 0.06850734 0.038193095
0.014300902 -0.0070074154 -0.021477446 -0.032113146 -0.010670432 0.003989817 -0.008413424 0.0067148097
0.05982061 -0.049644362 -0.01903981 -0.09960896 -0.0066616936 0.074096225 0.009812934 0.021776909
-0.029190166 -0.045025714 -0.03146521 0.032643475 -0.054204866 0.017612014 0.05923103 0.09674343
-0.012352464 0.0814621 0.026852937 -0.0117773255 -0.0046806904 -0.04171227 -0.009984063 -0.036226723
0.068998784 -0.0497172 0.04882027 0.03214883 -0.034932636 -0.011318627 -0.033384684 -0.14307815
0.062090658 0.031743653 0.0428936 -0.033022553 0.012326254 -0.027944794 0.0422262 0.03311887
-0.009058633 0.065855935 0.023200212 0.03796268 -0.05275692 0.07438812 -0.006798812 -0.087117836
-0.045255512 -0.017603254 0.04086112 -0.0046273414 0.026348203 0.047909345 -0.011789729 -0.029736131
0.024818925 -0.048373688 0.0076218406 0.0561104 0.10196316 -0.038398277 0.014785884 0.028163452
-0.017918505 -0.03820275 0.06564628 -0.030474313 -0.06253094 0.04178036 0.059955228 0.033407055
0.031219682 -0.0070388843 0.029183589 0.038068112 -0.048997175 0.031599086 -0.031590857 0.024689186
-0.020577893 -0.034020837 0.020480808 -0.010149543 0.060826916 0.012310222 -0.006490879 0.00036744835
0.05214941 -0.059355624 -0.017666671 -0.006658976 -0.036846444 0.029508777 0.04912977 -0.055689003
-0.0032209342 -0.041143183 0.02323441 0.03323904 0.028826384 -0.014551913 0.035934407 -0.0349106
-0.055378783 0.012796651 0.007879426 0.06353768 -0.069474705 -0.046884935 0.018412253 0.006316308
-0.061425894 -0.031860374 0.058687545 -0.03561889 0.0546787 0.059206173 0.06394259 0.037130404
-0.036411997 -0.05463997 0.046920512 -0.065229 -0.025218569 0.045073006 -0.047780707 0.048730604
-0.01594344 0.062146522 0.034633614 -0.02972667 0.019279523 -0.029464079 0.048824776 -0.054549135
0.050184023 -0.047468673 0.08202141 -0.023596922 -0.05609978 -0.07273048 0.030778643 -0.016219709
0.037076756 0.08703387 0.028620327 0.07589287 -0.02210084 0.057849344 0.035111293 0.004031964
0.051235575 -0.03050251 0.042383283 0.008077016 0.041666068 -0.04400407 0.06430543 0.022293832
-0.0045689675 0.053933363 0.005027295 0.028689682 0.08662898 0.06801735 0.055825915 0.047548
-0.035865102 0.033207305 -0.060090914 -0.023798155 0.018488267 -0.053726222 0.037042912 -0.0896023
00000000: 8378 7d3d f776 09bb b425 3cbd 9a6b 49bd
00000010: b773 243d 42b2 05bd 1bff c4bc 7279 913c
00000020: ad5d 823d 8743 72bd 0753 713d b904 32bd
00000030: f750 53bc 81fc 62bd 3468 1d3d 28a9 bf3c
00000040: c37c 643d ff52 733d 48ad 8dbd 1d97 82bd
00000050: 390a 733c 8f60 25bd 15d5 873d f50f 313d
00000060: eb47 8d3d ae86 85bc 5655 22bd 6716 3bb9
00000070: 8805 f83b 0f6e 17bd 156e 0e3d 93ed 04bd
00000080: 6802 233d d4d4 503c f395 f5bb 70a9 ffbc
00000090: d6f0 f3bc 6cd6 2bbd 396c 723b ec26 03bd
000000a0: a4df dabc 0d42 653c e0a2 353d bf9a 623b
000000b0: 606a 863d ca95 3fbd 4d5f 803b 10f6 c1bd
000000c0: 7f94 853d a661 41bd 5345 bebc 65ae 883b
000000d0: eb9f 42bd 837c ea3c 529c 473d 45d8 523d
000000e0: 921c 183d e7f8 c6bc 81f2 c2bb a5ef cb3c
000000f0: 2291 8c3d 29aa 9f3d a310 7f3c b332 6ebd
00000100: e782 7cbd 38da 94bb cae0 a3bc 57f2 38bd
00000110: 048a 5dbc 4e82 5fbd 944d 8c3d 5d70 1c3d
00000120: 554e 6a3c 769e e5bb 78f1 afbc 1389 03bd
00000130: 09d3 2ebc 03bd 823b 75d8 09bc e807 dc3b
00000140: 7506 753d e357 4bbd 60f9 9bbc c8ff cbbd
00000150: 564a dabb c3bf 973d 6ec6 203c 7d65 b23c
00000160: 3720 efbc e26c 38bd aae1 00bd 2ab5 053d
00000170: ec05 5ebd 1247 903c 3d9c 723d 6b21 c63d
00000180: fd61 4abc 9ad5 a63d b1fa db3c aff5 40bc
00000190: 7a60 99bb 7cda 2abd 3294 23bc 7962 14bd
000001a0: 3c4f 8d3d 43a4 4bbd c3f7 473d 7eae 033d
000001b0: 8615 0fbd c371 39bc 61be 08bd 1483 12be
000001c0: c652 7e3d a205 023d 33b1 2f3d a842 07bd
000001d0: 0ef4 493c 7bec e4bc 61f5 2c3d a7a7 073d
000001e0: a96a 14bc 7adf 863d 5f0e be3c c17e 1b3d
000001f0: a417 58bd cc58 983d 92c8 debb d66a b2bd
00000200: d85d 39bd b334 90bc fd5d 273d f4a0 97bb
00000210: 30d8 d73c 973c 443d b529 41bc 3099 f3bc
00000220: 0f51 cb3c 7d23 46bd a2c0 f93b 05d4 653d
00000230: 10d2 d03d 8347 1dbd 7e40 723c 0ab7 e63c
00000240: d4c9 92bc 7d7a 1cbd 8f71 863d 44a5 f9bc
00000250: 3910 80bd e221 2b3d 9d93 753d d6d5 083d
00000260: 6bc0 ff3c 71a6 e6bb 6c12 ef3c 4fed 1b3d
00000270: 43b1 48bd 0b6e 013d 6a65 01bd fa40 ca3c
00000280: f892 a8bc 6f59 0bbd 5ec7 a73c 454a 26bc
00000290: a525 793d d0b0 493c 71b1 d4bb 15a6 c039
000002a0: 9f9a 553d e21e 73bd b2b9 90bc 8a33 dabb
000002b0: 4cec 16bd 64bc f13c 4c3c 493d 271a 64bd
000002c0: 4f16 53bb c185 28bd 1756 be3c a925 083d
000002d0: 4f25 ec3c 266b 6ebc f52f 133d 6bfe 0ebd
000002e0: ddd4 62bd 0ba9 513c b518 013c 0b20 823d
000002f0: c148 8ebd 6b0a 40bd 4bd5 963c 08f9 ce3b
00000300: b899 7bbd 0680 02bd 5a62 703d 1de5 11bd
00000310: c6f6 5f3d 2c82 723d 55f4 823d 0d16 183d
00000320: bf24 15bd 29ce 5fbd b92f 403d c896 85bd
00000330: 2c97 cebc 799e 383d b4b5 43bd be99 473d
00000340: d19b 82bc 5a8d 7e3d fadb 0d3d 5885 f3bc
00000350: 17f0 9d3c a75e f1bc 7dfc 473d ea6e 5fbd
00000360: c38d 4d3d 836e 42bd d7fa a73d 554e c1bc
00000370: e2c8 65bd b8f3 94bd 7e23 fc3c 32df 84bc
00000380: ccdd 173d d03e b23d 2d75 ea3c b96d 9b3d
00000390: d20c b5bc 6ff3 6c3d dcd0 0f3d 911e 843b
000003a0: 65dc 513d 66e0 f9bc 189a 2d3d 7655 043c
000003b0: 0aaa 2a3d 9d3d 34bd 91b2 833d 8ea1 b63c
000003c0: 47b7 95bb 3be9 5c3d 02bc a43b a006 eb3c
000003d0: 896a b13d ae4c 8b3d b7a9 643d b1c1 423d
000003e0: 49e7 12bd 6204 083d e421 76bd 59f4 c2bc
000003f0: b574 973c 0710 5cbd 4fba 173d 6981 b7bd

arith.constant8 f4 [64, 3, 3, 64]
-0.0018126956 0.052681714 -0.033672348 -0.053259976 -0.022426 -0.034227617 0.025780734 0.035612393
-0.0033838828 -0.05475763 0.02251459 0.050256457 -0.041638672 -0.0012935658 -0.0844568 -0.0005916256
0.02237322 0.00792862 0.046540044 0.060155198 0.0030639642 0.04708716 -0.033345547 0.021003138
-0.027315024 0.0151797375 -0.03210078 -0.053680737 -0.04380394 0.030871913 0.035722833 -0.022858167
-0.0697904 -0.016268374 -0.027446363 -0.043973915 0.060165707 -0.0013591901 -0.055566102 0.032383595
-0.0040678587 0.0077559524 -0.06919386 0.058857642 -0.063647896 0.01231313 0.021267485 0.021013
0.03411648 -0.0015465518 0.054861445 -0.041963518 -0.037675194 -0.08298923 0.037750717 -0.06312057
-0.07730347 0.047617592 -0.0506746 -0.024532039 -0.016476996 -0.061337303 0.06135677 -0.077874064
0.04802218 -0.015093963 0.031650405 -4.8840524e-05 -0.018251915 -0.027178176 0.03094902 0.043606117
-0.03129448 -0.051569626 -0.032368924 0.027230036 -0.042660072 0.039316475 -0.048854087 -0.0054536834
0.0354059 -0.049906533 0.0020497027 -0.073283195 -0.033309616 0.063670486 0.009887501 0.05285616
-0.07257042 -0.002267781 0.044717304 0.029855082 -0.06642012 -0.07205812 -0.021654578 0.035550974
-0.030316398 -0.028119212 -0.005264047 0.004651801 -0.051198654 0.007176025 -0.019866074 -0.05891961
0.064487 -0.040992375 0.05986268 0.047089834 -0.06135971 0.06351425 0.033277635 0.037909977
0.048523683 0.057174467 -0.021818323 0.006570148 -0.03052262 -0.05821414 -0.03127696 -0.060498644
-0.052747764 -0.025985502 -0.060249913 -0.049869385 -0.0068839146 0.030841766 0.0312452 0.044824123
-0.039793648 -0.05633663 0.0077837366 0.021228869 -0.0060335766 -0.037628684 -0.050200958 -0.06569065
0.039869934 -0.020574445 0.010458691 -0.04225861 -0.017380223 0.031464964 0.018945135 -0.033198707
0.06694464 0.05797039 0.053192597 -0.04270541 0.031561416 -0.018928213 -0.026472352 0.0013184093
-0.0332303 0.05936502 -0.08627556 0.03254568 -0.009205347 -0.01720767 -0.029224683 0.063582905
0.044547148 0.012161546 -0.04609493 -0.053731807 -0.03257294 -0.023985201 0.0153282825 0.03254485
0.03693832 -0.021907968 0.030622235 -0.06468207 -0.022410393 0.057189856 0.009077185 -0.028870009
0.038375508 -0.019496895 -0.057999805 0.006100819 -0.04483843 -0.06900674 0.018012496 -0.0069656135
-0.038933516 0.04735336 0.061100718 -0.0688508 0.018302748 -0.059726797 0.0442852 -0.0023500188
0.056399 -0.051950302 0.016259834 -0.018107265 -0.062747516 -0.09371506 0.03740147 0.025345221
-0.03011838 0.05862347 -0.064465635 -0.047431856 0.020259041 -0.052747622 -0.0630736 0.033437897
-0.06953655 0.0140133435 -0.026142722 -0.03303125 -0.040604036 -0.007877521 -0.08323014 -0.0040153232
-0.057271827 -0.01715319 -0.01753279 -0.036721673 -0.030633554 -0.03480213 -0.09623275 -0.033602964
0.070143394 -0.0068855267 -0.058584504 0.023910202 0.055235066 -0.03462345 -0.01165832 -0.026086906
-0.048384283 -0.044332977 0.003462444 0.045365687 -0.03795466 0.04703463 -0.037044693 -0.010491637
0.06823127 -0.051645137 0.029484076 -0.07277356 0.053691305 -0.031009613 0.049670063 -0.050654244
-0.0717481 0.024188913 -0.015031006 -0.032113615 0.0641678 -0.05775084 0.021536278 -0.025631454
00000000: f997 edba c8c8 573d 04ec 09bd 2227 5abd
00000010: bbb6 b7bc 4232 0cbd 1e32 d33c 4dde 113d
00000020: 22c4 5dbb 8949 60bd 8470 b83c b7d9 4d3d
00000030: 508d 2abd de8c a9ba b0f7 acbd 5217 1bba
00000040: 0b48 b73c 0be7 013c c6a0 3e3d 4c65 763d
00000050: cacc 483b 77de 403d 5795 08bd c60e ac3c
00000060: c2c3 dfbc 6fb4 783c 1c7c 03bd 55e0 5bbd
00000070: c36b 33bd 18e7 fc3c 1b52 123d 0d41 bbbc
00000080: 45ee 8ebd 4145 85bc 32d7 e0bc fe1d 34bd
00000090: 5170 763d da26 b2ba 4899 63bd a9a4 043d
000000a0: ac4b 85bb a525 fe3b 83b5 8dbd b614 713d
000000b0: d459 82bd 03bd 493c 2639 ae3c 7423 ac3c
000000c0: b9bd 0b3d abb5 caba 65b6 603d f0e1 2bbd
000000d0: 4e51 1abd 42f6 a9bd 7fa0 1a3d 5b45 81bd
000000e0: 4851 9ebd aa0a 433d 2b90 4fbd 6af7 c8bc
000000f0: c4fa 86bc d33c 7bbd 3d51 7b3d 707c 9fbd
00000100: e8b2 443d ab4c 77bc dba3 013d 1dda 4cb8
00000110: 0a85 95bc c4a4 debc cd88 fd3c 549c 323d
00000120: a42e 00bd ac3a 53bd 4795 04bd 8611 df3c
00000130: 54bc 2ebd 500a 213d 391b 48bd d0b4 b2bb
00000140: c705 113d cb6a 4cbd 4e54 063b 8015 96bd
00000150: aa6f 08bd ac65 823d 2fff 213c b37f 583d
00000160: cd9f 94bd 0d9f 14bb 7e29 373d a592 f43c
00000170: 4607 88bd 3593 93bd f164 b1bc e69d 113d
00000180: 185a f8bc 435a e6bc 077e acbb 236e 983b
00000190: aeb5 51bd dc24 eb3b 2dbe a2bc b055 71bd
000001a0: c311 843d 9fe7 27bd 9232 753d 45e1 403d
000001b0: 5254 7bbd c213 823d 214e 083d 7e47 1b3d
000001c0: c5c0 463d c62f 6a3d 57bc b2bc 654a d73b
000001d0: 930a fabc f371 6ebd 451c 00bd 6dcd 77bd
000001e0: 0a0e 58bd 8cdf d4bc 9dc8 76bd d743 4cbd
000001f0: 7692 e1bb dfa7 fc3c eff5 ff3c 8099 373d
00000200: aafe 22bd 3dc1 66bd b70e ff3b 2ae8 ad3c
00000210: 4fb5 c5bb 8920 1abd 859f 4dbd d288 86bd
00000220: a84e 233d bd8b a8bc ee5a 2b3c 5d17 2dbd
00000230: f860 8ebc 68e1 003d d432 9b3c 5efb 07bd
00000240: 451a 893d 5c72 6d3d 7be0 593d deeb 2ebd
00000250: 8b46 013d 570f 9bbc 8cdc d8bc 7ace ac3a
00000260: 7f1c 08bd bc28 733d 3eb1 b0bd 9e4e 053d
00000270: 06d2 16bc 19f7 8cbc 9a68 efbc c137 823d
00000280: 1277 363d 3941 473c 0ace 3cbd e215 5cbd
00000290: 346b 05bd 9d7c c4bc 7a23 7b3c c04d 053d
000002a0: a34c 173d 5778 b3bc 7bdb fa3c 0878 84bd
000002b0: 0096 b7bc e93f 6a3d 79b8 143c cc80 ecbc
000002c0: a32f 1d3d f4b7 9fbc 3491 6dbd 61e9 c73b
000002d0: 80a8 37bd 6853 8dbd f18e 933c cd3f e4bb
000002e0: c078 1fbd 99f5 413d bf44 7a3d a601 8dbd
000002f0: a5ef 953c 16a4 74bd 6664 353d c602 1abb
00000300: a302 673d d7c9 54bd 5833 853c b055 94bc
00000310: c581 80bd aeed bfbd 4932 193d c8a0 cf3c
00000320: d2ba f6bc 2a1f 703d 8f06 84bd e847 42bd
00000330: 4af6 a53c e40d 58bd bb2c 81bd 2df6 083d
00000340: 2e69 8ebd 3998 653c 4329 d6bc c74b 07bd
00000350: 6b50 26bd b810 01bc 9074 aabd f992 83bb
00000360: dd95 6abd d984 8cbc eda0 8fbc 7769 16bd
00000370: 38f3 fabc ae8c 0ebd ad15 c5bd 43a3 09bd
00000380: 57a7 8f3d fc9f e1bb 4ef6 6fbd 54df c33c
00000390: 2a3e 623d 52d1 0dbd 8a02 3fbc 35b4 d5bc
000003a0: 992e 46bd 7f96 35bd 2cea 623b 5fd1 393d
000003b0: 5876 1bbd 62a7 403d 2dbc 17bd 1de5 2bbc
000003c0: d6bc 8b3d da89 53bd 9788 f13c 4e0a 95bd
000003d0: 6aeb 5b3d df07 febc d672 4b3d d37a 4fbd
000003e0: abf0 92bd d427 c63c 9c44 76bc 9189 03bd
000003f0: 686a 833d 258c 6cbd d96c b03c 0ef9 d1bc

arith.constant9 f4 [64, 3, 3, 32]
-0.09500509 -0.04160231 -0.041602094 0.0076962234 0.08794065 -0.040194795 0.020316118 0.09206377
-0.0048227855 -0.14294466 -0.048392955 0.05056636 0.047719378 -0.038786836 -0.024986845 -0.034117393
0.010505931 -0.029380767 0.042713515 -0.015298192 -0.013693319 -0.009379772 0.068949744 0.042346377
-0.03418566 -0.07006041 -0.034017947 0.0743099 0.07847732 -0.04483602 -0.0021205528 -0.0024140794
-0.040613532 -0.026486363 -0.10106641 -0.099163465 -0.061761495 0.03811 -0.029014237 0.12949708
-0.0012879446 -0.11824638 -0.038936894 0.03882944 0.09000849 -0.045761228 -0.029871883 0.08271234
-0.069537304 0.06161707 0.04084087 0.00640329 0.052959632 -0.086246565 -0.06753839 -0.06566047
0.033839956 -0.02788386 -0.070501566 -0.012607676 0.08611812 0.06836477 0.050857566 -0.025138313
-0.08062938 0.044616926 0.007257938 0.017618954 0.0587922 -0.03518929 -0.037140872 0.04952735
0.007995117 -0.096654326 0.014363418 -0.046462465 -0.035187997 -0.033942465 -0.0009979854 -0.030023646
0.027721362 -0.0126386415 -0.035993572 -0.026635028 0.0035102146 -0.062215105 0.07803962 0.03138266
-0.08297265 -0.046056516 -0.0057747555 0.036422573 0.024271604 -0.015875762 0.0040676305 -0.045638606
-0.026672797 -0.007674799 0.03978547 -0.05141559 0.098696515 -0.05699512 -0.028329704 0.061330326
0.073826484 0.00042902605 0.0111005865 0.06629383 -0.036735196 0.051098846 -0.03001726 0.020050872
0.057324104 -0.021693153 0.081812814 -0.060206972 0.019803217 -0.06922047 -0.07092373 -0.029614538
0.011257137 -0.07445449 0.037054475 0.025262924 0.06535245 0.050759483 0.076540686 -0.06157424
0.05227211 -0.012130763 -0.0957246 -0.13148202 -0.0029413837 -0.022530261 0.0472421 -0.0071464037
0.06429601 -0.044966128 0.04136225 0.028633064 -0.03624516 0.07550153 -0.05667987 0.03771636
-0.087992124 0.082540564 0.019511994 0.02796097 -0.0069548083 0.0028684922 0.03500371 0.010866295
-0.0050977943 0.06404055 0.020266881 0.06477806 0.042850398 0.04524391 0.019969717 -0.053779483
0.028717192 0.07476834 -0.08488218 -0.103544965 0.09110271 0.05846433 0.04044196 0.101270445
-0.047124397 -0.048399355 -0.08566391 0.02240804 0.09349453 0.021467594 -0.034986876 0.024192894
-0.059276737 -0.030832188 0.06732557 0.049437664 -0.026351858 -0.02739812 0.007552961 0.03310333
-0.09136 -0.0044723083 0.035799902 0.0034786623 0.07404311 0.01012401 -0.05860806 0.022231061
0.01392574 -0.076500304 -0.0036847924 -0.065094136 -0.03446055 -0.040122747 -0.0009418419 0.0051227454
0.027280375 -0.14679524 -0.043923587 -0.047016077 0.033966463 -0.080328524 -0.1170686 0.009990433
-0.038480032 0.010065258 0.025887407 0.035169743 0.016016869 -0.012834704 0.012463506 0.0386725
0.014864394 0.015049132 -0.043999135 0.019486915 0.07912245 -0.012072384 -0.083935216 0.044549797
0.013263939 -0.06531294 0.03949409 -0.032009296 -0.059746817 -0.03495089 -0.047406472 0.0069635906
0.03437768 -0.001926631 -0.016177705 0.085087724 0.01214213 -0.03676996 -0.0011510974 -0.0319866
-0.035902217 0.07612697 0.05649833 -0.13467805 0.011688663 -0.029613195 -0.048548847 0.0018436837
-0.056484554 0.0030219022 0.0052812863 -0.01872453 -0.06906369 -0.07807485 0.06093328 0.044984188
00000000: 0792 c2bd 2f67 2abd f566 2abd 9a30 fc3b
00000010: 3a1a b43d 4ca3 24bd fd6d a63c ee8b bc3d
00000020: 7508 9ebb 1660 12be b137 46bd ac1e 4f3d
00000030: 6575 433d f2de 1ebd 36b1 ccbc aebe 0bbd
00000040: 1221 2c3c efaf f0bc 5ef4 2e3d 45a5 7abc
00000050: f159 60bc 9dad 19bc 8635 8d3d 6573 2d3d
00000060: 4306 0cbd d57b 8fbd 6756 0bbd ca2f 983d
00000070: b8b8 a03d f9a5 37bd f9f8 0abb 8835 1ebb
00000080: 605a 26bd eef9 d8bc e8fb cebd 3716 cbbd
00000090: 9ff9 7cbd 3b19 1c3d 44af edbc e29a 043e
000000a0: 40d0 a8ba 282b f2bd 4b7c 1fbd 9e0b 1f3d
000000b0: 5f56 b83d 2070 3bbd e1b5 f4bc 1665 a93d
000000c0: 9369 8ebd 2e62 7c3d c248 273d b1d2 d13b
000000d0: 33ec 583d 0aa2 b0bd 9151 8abd ff78 86bd
000000e0: c49b 0a3d b16c e4bc 2063 90bd 6d90 4ebc
000000f0: b25e b03d d402 8c3d 0650 503d ddee cdbc
00000100: 0421 a5bd 3dc0 363d ffd3 ed3b a055 903c
00000110: 17d0 703d a522 10bd 0721 18bd 31dd 4a3d
00000120: f4fd 023c b4f2 c5bd 8b54 6b3c 6d4f 3ebd
00000130: 4a21 10bd 4107 0bbd d5ce 82ba 26f4 f5bc
00000140: e917 e33c 4e12 4fbc ff6d 13bd b431 dabc
00000150: a10b 663b 44d5 7ebd 3cd3 9f3d 1b8b 003d
00000160: 91ed a9bd c2a5 3cbd 293a bdbb d62f 153d
00000170: 3ed5 c63c e30d 82bc c249 853b 8cef 3abd
00000180: e980 dabc e17c fbbb 17f6 223d 2799 52bd
00000190: 6621 ca3d b773 69bd b213 e8bc 8235 7b3d
000001a0: 5732 973d e7ee e039 3cdf 353c 0fc5 873d
000001b0: a577 16bd 064d 513d c2e6 f5bc ba41 a43c
000001c0: aecc 6a3d d7b5 b1bc 7a8d a73d 969b 76bd
000001d0: 5b3a a23c 76c3 8dbd 7640 91bd 309a f2bc
000001e0: db6f 383c 987b 98bd 6fc6 173d 31f4 ce3c
000001f0: 81d7 853d 2de9 4f3d 5dc1 9c3d 4535 7cbd
00000200: 481b 563d 1cc0 46bc 420b c4bd 39a3 06be
00000210: 3bc4 40bb 6291 b8bc ef80 413d 612c eabb
00000220: a0ad 833d 672e 38bd 766b 293d e38f ea3c
00000230: ce75 14bd 8ca0 9a3d 2729 68bd 787c 1a3d
00000240: 3735 b4bd 070b a93d 9ed7 9f3c 670e e53c
00000250: 29e5 e3bb 50fd 3b3b 0d60 0f3d 8b08 323c
00000260: 660b a7bb b127 833d bb06 a63c 5caa 843d
00000270: e683 2f3d ae51 393d 8897 a33c e047 5cbd
00000280: 5140 eb3c 2520 993d b5d6 adbd 620f d4bd
00000290: 0f94 ba3d 4b78 6f3d 78a6 253d e166 cf3d
000002a0: 8305 41bd 673e 46bd 8f70 afbd 1191 b73c
000002b0: 0f7a bf3d cfdc af3c 664e 0fbd 2d30 c63c
000002c0: 2acc 72bd c993 fcbc fde1 893d 267f 4a3d
000002d0: dadf d7bc 0672 e0bc d47e f73b 5b97 073d
000002e0: f41a bbbd 718c 92bb eba2 123d 45fa 633b
000002f0: eaa3 973d 2ddf 253c 010f 70bd ea1d b63c
00000300: c928 643c 31ac 9cbd 8f7c 71bb 1350 85bd
00000310: 8126 0dbd c057 24bd f1e5 76ba b4dc a73b
00000320: 187b df3c 7e51 16be 38e9 33bd ee93 40bd
00000330: 6b20 0b3d 4883 a4bd aac1 efbd eaae 233c
00000340: 3d9d 1dbd c0e8 243c d411 d43c 260e 103d
00000350: cf35 833c a648 52bc bc33 4c3c 0e67 1e3d
00000360: ca89 733c a290 763c 7038 34bd 06a3 9f3c
00000370: f30a a23d 40cb 45bc 3ae6 abbd d979 363d
00000380: fe50 593c cac2 85bd 8ec4 213d 2e1c 03bd
00000390: 14b9 74bd aa28 0fbd 4a2d 42bd d52e e43b
000003a0: 9ccf 0c3d 0287 fcba 1b87 84bc 7942 ae3d
000003b0: c9ef 463c 199c 16bd 6be0 96ba 6204 03bd
000003c0: 340e 13bd 75e8 9b3d cb6a 673d 0be9 09be
000003d0: ce81 3f3c 5f97 f2bc 28db 46bd c2a7 f13a
000003e0: 595c 67bd 1b0b 463b a40e ad3b 2f64 99bc
000003f0: 4471 8dbd b5e5 9fbd 2d95 793d 5741 383d

arith.constant10 f4 [3, 64]
0.1812817 0.10069577 -0.009382118 -0.1811553 -0.0141480295 -0.17888056 -0.24293391 0.01914487
-0.08311159 0.23453861 -0.30535597 0.1855386 0.019504681 -0.24314661 -0.13814238 -0.10896335
-0.1903295 -0.12170021 0.14376293 -0.04525382 0.04656704 0.25640148 -0.07193448 -0.086584635
0.06988208 0.06460297 -0.13560647 0.068714574 0.18358873 0.0050679813 0.26575056 -0.17792943
-0.12329243 0.2852383 0.029224107 0.05441122 0.3001729 -0.09493393 -0.1470975 0.20380962
0.21414192 -0.0569604 0.013362315 -0.23840567 0.012159272 0.20945832 0.23769537 0.018444233
-0.16953343 -0.014179472 0.1410205 -0.18230914 0.04677135 0.2248897 0.007340431 -0.15789297
0.08758279 0.22686788 -0.2774751 -0.16320057 -0.2855658 0.28370717 -0.011334292 -0.020781422
-0.22349265 -0.24706167 0.047923375 0.02627138 -0.20110868 0.008244106 -0.08041913 -0.23509601
0.18808383 -0.14270686 -0.25890526 -0.10932708 0.1741881 -0.021844221 -0.17039028 0.07751335
-0.11879867 -0.026233992 0.15029629 -0.17825028 0.22146502 0.005017696 -0.11381709 -0.10109264
0.13610843 0.024771718 -0.25640932 0.14987645 -0.04656698 0.14023864 0.13665774 0.25248852
-0.039673742 -0.123137854 -0.13763474 0.041539066 0.13939771 0.20989154 -0.18470511 -0.094968185
0.19615069 -0.25722346 -0.16480374 0.13811868 -0.007203748 0.13570502 0.28138897 0.03377884
0.10842991 0.10273016 0.061218802 0.25332138 0.24073395 0.10267351 0.24233328 0.2493716
0.25508735 -0.28409353 0.060809992 -0.21328309 -0.0121867815 -0.121788375 0.11587264 0.12658373
0.15788682 0.26769707 0.018537708 0.14265627 -0.012775091 -0.14577624 0.21618284 -0.2512131
-0.15440987 0.17306884 0.19861671 -0.2701343 -0.010916515 -0.23405986 -0.302017 0.035455264
-0.18951826 0.07314694 -0.022965923 0.10579647 -0.25545236 -0.32986975 0.12086757 -0.19566584
-0.06792863 -0.22126703 0.25463286 -0.08691008 -0.028301103 0.23907873 0.05358857 0.099861525
-0.069153614 0.09395784 -0.24443339 0.0953184 0.04561702 0.22431143 0.22152172 -0.1943953
0.09763166 -0.16612963 -0.09624017 0.25230223 0.015172214 -0.13060921 0.23162335 0.05263068
-0.076879315 0.08952408 -0.13768575 -0.07162575 0.03445106 0.08686588 0.2506977 -0.19481938
-0.081180505 0.07727336 0.00026554524 0.15369539 0.15072851 -0.38726074 -0.36234716 -0.14798857
00000000: e9a1 393e 9539 ce3d 74b7 19bc c680 39be
00000010: 23cd 67bc 772c 37be abc3 78be b4d5 9c3c
00000020: 6936 aabd e42a 703e 9e57 9cbe d5fd 3d3e
00000030: 48c8 9f3c 6dfb 78be 3275 0dbe 2d28 dfbd
00000040: bde5 42be f63d f9bd 9736 133e 125c 39bd
00000050: 15bd 3e3d 0e47 833e 6252 93bd 4953 b1bd
00000060: 561e 8f3d 904e 843d 6cdc 0abe 3aba 8c3d
00000070: affe 3b3e 4f11 a63b 7510 883e 2233 36be
00000080: be80 fcbd c10a 923e 6567 ef3c 4dde 5e3d
00000090: 43b0 993e b86c c2bd baa0 16be 78b3 503e
000000a0: 0548 5b3e 4f4f 69bd 9ced 5a3c 9e20 74be
000000b0: af37 473c 3e7c 563e 6a66 733e 5c18 973c
000000c0: 2c9a 2dbe 0451 68bc ae67 103e 3faf 3abe
000000d0: 5193 3f3d 7c49 663e 0088 f03b b2ae 21be
000000e0: 9b5e b33d 0e50 683e 3711 8ebe 0d1e 27be
000000f0: ae35 92be 1142 913e 77b3 39bc cd3d aabc
00000100: 42db 64be bcfd 7cbe 4d4b 443d 1437 d73c
00000110: 6fef 4dbe 4912 073c c9b2 a4bd 02bd 70be
00000120: 0c99 403e bf21 12be 3b8f 84be e0e6 dfbd
00000130: 5e5e 323e a7f2 b2bc ca7a 2ebe 52bf 9e3d
00000140: b84c f3bd abe8 d6bc 45e7 193e 3e87 36be
00000150: bac7 623e 7c6b a43b ef18 e9bd a809 cfbd
00000160: 0260 0b3e 0fee ca3c 1548 83be 3679 193e
00000170: 05bd 3ebd b89a 0f3e 02f0 0b3e 2d46 813e
00000180: ef80 22bd b32f fcbd 1ff0 0cbe de24 2a3d
00000190: 46be 0e3e cfed 563e 5623 3dbe ae7e c2bd
000001a0: badb 483e cbb2 83be 50c2 28be fc6e 0d3e
000001b0: 6b0d ecbb 42f6 0a3e 3712 903e ae5b 0a3d
000001c0: 8010 de3d 3164 d23d 91c0 7a3d 57b3 813e
000001d0: f682 763e 7d46 d23d 3726 783e 455b 7f3e
000001e0: cf9a 823e b574 91be e613 793d e266 5abe
000001f0: 11ab 47bc 2f6c f9bd a24e ed3d 2a9f 013e
00000200: 15ad 213e 970f 893e 64dc 973c 7c14 123e
00000210: 9e4e 51bc 5e46 15be 095f 5d3e 019f 80be
00000220: 9f1d 1ebe f538 313e 2e62 4b3e 0b4f 8abe
00000230: 2fdb 32bc 63ad 6fbe f9a1 9abe 8a39 113d
00000240: 1311 42be 10ce 953d 0823 bcbc d2ab d83d
00000250: a7ca 82be b0e4 a8be 6b89 f73d a05c 48be
00000260: 2a1e 8bbd d393 62be 3d5f 823e e9fd b1bd
00000270: b7d7 e7bc 0ed1 743e b07f 5b3d 3384 cc3d
00000280: 69a0 8dbd f86c c03d bf4c 7abe 4b36 c33d
00000290: ead8 3a3d e5b1 653e 97d6 623e 900f 47be
000002a0: 1cf3 c73d e31d 2abe 9119 c5bd c22d 813e
000002b0: e194 783c 6cbe 05be ac2e 6d3e 4593 573d
000002c0: e772 9dbd 6758 b73d 7efd 0cbe 85b0 92bd
000002d0: 8e1c 0d3d bde6 b13d 735b 803e bb7e 47be
000002e0: f741 a6bd 7f41 9e3d e138 8b39 5362 1d3e
000002f0: 9358 1a3e 0a47 c6be 9185 b9be 518a 17be
